models/safe_food_model.tflite (tflite, 6184 bytes, 3 tensors)

arith.constant f4 [1, 96]
000000 18 0a aa bc 51 f4 f3 3c bc 92 f7 bc 77 b3 30 3d
       -0.020756766 0.029779585 -0.030221336 0.0431399
000010 d3 07 f2 3c 32 83 1b 3d 62 3c b1 bc e5 c7 02 bd
       0.029544747 0.037966914 -0.021635238 -0.031928916
000020 4a d8 e3 bc b1 a1 20 bd dc 34 ab 3d d7 f8 ea 3c
       -0.027813096 -0.0392167 0.083596915 0.02868311
000030 65 5d 26 3d 89 75 dc 3d 16 07 0a 3d d7 af 4b bd
       0.04061641 0.107646056 0.033698164 -0.04972824
000040 e3 1c ef 3c 43 2f ec 3d 29 bf 1c 3d 6d a1 af bc
       0.029188579 0.11532452 0.038268242 -0.021439278
000050 dd cb b1 3c a0 4b ca 3c 15 13 d6 3c de 7e ed bc
       0.021703655 0.024694264 0.026132146 -0.028991159
000060 14 5e 10 bd 8c 65 00 bd e3 b4 18 bd 26 26 bd bd
       -0.03524597 -0.031346843 -0.037281882 -0.09235792
000070 61 0a 00 3d 51 74 3a bd 96 af f2 bc 82 2d ac 3c
       0.031259898 -0.045521084 -0.029624742 0.021017794
000080 58 37 df bc c0 f0 dd 3c 3e 16 c1 3c f3 f4 f1 3c
       -0.02724807 0.027092338 0.023570176 0.029535746
000090 7b 12 d6 bc c3 05 b2 bc 51 bb 07 bd ab 73 ac 3d
       -0.026131859 -0.021731263 -0.033137623 0.084204994
0000a0 4c 7f 02 3d b4 2f ba bc be 69 d4 bc 48 52 11 3d
       0.03185968 -0.022727825 -0.025929328 0.03547886
0000b0 1a b8 04 bd c6 19 fb 3c 6a 2b c7 bc d2 ee c0 3d
       -0.032402135 0.030651938 -0.024312694 0.09420551
0000c0 5f 3c de bc 8c 40 01 3d 32 56 10 bd 8c 80 8f 3d
       -0.027128397 0.031555697 -0.035238452 0.0700694
0000d0 1b 39 b9 3c 19 4b 1b bd 04 34 de 3c 24 e3 cf 3c
       0.022610238 -0.037913416 0.027124412 0.025376864
0000e0 d4 df c6 3c dd 6d 03 3d 01 b9 1c bd c1 23 f1 3c
       0.024276651 0.032087196 -0.03826237 0.029435994
0000f0 d8 24 bb 3c 32 00 fe 3c 69 d9 e6 3c 88 51 04 bd
       0.022844717 0.031005953 0.028179841 -0.032304317
000100 b8 89 35 bd af 9d 97 3c 39 3c 0d bd d4 dc 3c 3d
       -0.044320792 0.018507807 -0.03448126 0.046109036
000110 9d 6f d4 bc 60 c7 ff bc bd 67 da 3c a4 62 04 bd
       -0.025932128 -0.031223 0.026660794 -0.032320634
000120 89 a6 ee 3c 3d 39 f1 3c 26 4d f3 3c bf 30 04 3d
       0.029132145 0.029446239 0.029699873 0.03227305
000130 0f ae ad 3c de ca de 3c 53 27 df bc bd 7e f8 3c
       0.021201162 0.027196344 -0.027240431 0.030333871
000140 72 cf c6 bc 42 7f b5 3c 96 dc 05 bd 01 b5 e4 3c
       -0.02426884 0.022155408 -0.03268107 0.02791834
000150 79 bd a6 3c 64 a3 a4 bc 72 ad c8 3c ea b8 ef 3c
       0.02035402 -0.020097442 0.024496768 0.029262979
000160 6f f9 a9 3c 18 26 41 3d c6 ca cb 3c c0 9f d0 3c
       0.020748822 0.04715547 0.024876963 0.0254668
000170 8d 76 11 3d 31 2c e0 bc 2b 7b c1 3c ab ba e5 bc
       0.03551345 -0.027364822 0.023618301 -0.028043112

sequential_1/dense_1/BiasAdd/ReadVariableOp f4 [96]
000000 72 0f b2 bd bb 66 97 3d 96 5c 15 be 83 c0 43 be
       -0.08694352 0.07392641 -0.145861 -0.19116406
000010 1d 7a 84 3d 9c 49 e4 bc 42 50 86 bc 2f b9 03 be
       0.06468604 -0.027867131 -0.016395692 -0.1286361
000020 30 b8 2d be cb e5 31 be c7 e8 7c be 0e c4 7c 3d
       -0.16964793 -0.17372815 -0.24698173 0.06171041
000030 b6 29 e5 3c d2 21 b0 be e6 15 81 bd 78 e1 25 be
       0.02797399 -0.34400803 -0.06303005 -0.16199291
000040 02 46 cc bd d9 fa a3 be 20 f5 b9 bd 24 66 7b bd
       -0.099742904 -0.3202732 -0.09079957 -0.061376706
000050 70 1d 35 bd 54 8b 59 3c 81 7a 9b 3d c0 e9 05 be
       -0.044217527 0.013277847 0.07591725 -0.1307745
000060 f7 e5 31 be 91 9c bf bd 50 9e da bd be b7 c2 bd
       -0.17372881 -0.093560345 -0.10674727 -0.09507702
000070 1c 7f 41 be 3d 85 39 be 86 ab f8 bd 02 8f f0 bd
       -0.18896145 -0.18117233 -0.121420905 -0.117460266
000080 1b d5 b8 bd 77 09 5c be fd 30 d1 3d a5 c4 78 3a
       -0.09025022 -0.21487986 0.10214422 0.00094897515
000090 fe e8 d6 bd dc fd 4b be 45 a4 37 be 76 8a 50 be
       -0.104936585 -0.19921058 -0.17933758 -0.20365319
0000a0 79 56 b8 ba 5a 8c d6 bd a5 0f 91 bd 22 54 cb bd
       -0.0014063857 -0.10475989 -0.07083062 -0.099281564
0000b0 5f a5 cf bd 18 73 b4 bd 4f fc 85 bd 1f 29 7b be
       -0.10138964 -0.08811015 -0.06542265 -0.24527405
0000c0 76 8a d5 bd e3 76 48 3d a2 f0 36 be 2c 07 81 be
       -0.104268 0.048941504 -0.17865232 -0.25200784
0000d0 64 93 91 bd 52 03 f5 bd 23 a1 ba bd 42 45 8e bb
       -0.07108191 -0.11963524 -0.09112766 -0.0043417523
0000e0 e6 43 b2 3d d8 be 3b be 3b 07 fd 3c 7d dd 28 bd
       0.08704357 -0.1833452 0.030887237 -0.041226853
0000f0 64 a9 b6 bb 8c ca 31 bc b3 90 65 3d 50 67 e2 bd
       -0.005574392 -0.010851514 0.0560462 -0.110548615
000100 14 89 3b be 70 98 0b bd b1 96 e6 bd 39 1f d1 bc
       -0.1831401 -0.034080923 -0.11259211 -0.025527583
000110 b2 5d cf bd 81 3b d8 bd 97 7f fe bb 2e 36 8d bd
       -0.10125293 -0.105582245 -0.0077666747 -0.068950996
000120 75 98 ab 3b d0 c9 e1 bc 4e 59 57 3d b3 69 91 bd
       0.00523668 -0.027562052 0.052575402 -0.07100239
000130 05 f7 9d ba b4 12 f9 3d 9c 8a 79 bd d7 c6 bc bd
       -0.0012051767 0.121617705 -0.060923204 -0.09217613
000140 c4 85 d6 bd 24 83 8d bc 13 17 0b be da 8a 3a be
       -0.104747325 -0.017274447 -0.13583021 -0.1821703
000150 a6 17 cd bc 51 b6 f4 bd b4 cb 90 3b 0e 32 76 bc
       -0.02503569 -0.119488366 0.0044188146 -0.015026582
000160 cb c0 84 3d 69 d4 e5 bc a3 d2 8a 3c 48 5f 60 bc
       0.06482085 -0.028055387 0.016946143 -0.013694592
000170 51 84 ce 3d e7 35 e1 bd d0 76 ee 3c 2e 98 04 be
       0.10083831 -0.10996609 0.029109389 -0.12948677

sequential_1/dense_1/MatMul i1 [96, 28]
000000 8e ef f6 fe 06 46 08 11 04 0b ec f8 fb f5 01 81
       -114 -17 -10 -2 6 70 8 17 4 11 -20 -8 -5 -11 1 -127
000010 0e 07 fc 0b fc 1e 08 94 fc 01 0b 16 00 05 82 83
       14 7 -4 11 -4 30 8 -108 -4 1 11 22 0 5 -126 -125
000020 f2 f8 fb f7 81 87 01 17 0d 0e 1b 1b 0d 05 0c 05
       -14 -8 -5 -9 -127 -121 1 23 13 14 27 27 13 5 12 5
000030 17 13 13 0e 16 0f 10 f4 e9 98 0c ff 06 0d 05 41
       23 19 19 14 22 15 16 -12 -23 -104 12 -1 6 13 5 65
000040 f9 04 dd 81 02 1e e6 ec 12 29 eb b1 0a 08 08 b6
       -7 4 -35 -127 2 30 -26 -20 18 41 -21 -79 10 8 8 -74
000050 e8 f1 fc 2d 0e 7f f8 02 ef ef 08 73 02 f8 05 f7
       -24 -15 -4 45 14 127 -8 2 -17 -17 8 115 2 -8 5 -9
000060 fb 06 eb e9 d2 e0 ed df e7 e4 e2 b1 f7 f4 e3 e2
       -5 6 -21 -23 -46 -32 -19 -33 -25 -28 -30 -79 -9 -12 -29 -30
000070 0e 07 ff 00 82 fa f6 f4 fd 05 81 0d 0d 15 16 1a
       14 7 -1 0 -126 -6 -10 -12 -3 5 -127 13 13 21 22 26
000080 09 eb 06 f0 1a 19 14 da 0e 04 f4 df 11 03 fa fb
       9 -21 6 -16 26 25 20 -38 14 4 -12 -33 17 3 -6 -5
000090 f5 f1 ed e2 fc e8 14 4f ba 93 f7 0a f1 50 81 9f
       -11 -15 -19 -30 -4 -24 20 79 -70 -109 -9 10 -15 80 -127 -97
0000a0 07 0a fb f7 0e 00 ee c2 d7 f2 fe f1 08 11 01 16
       7 10 -5 -9 14 0 -18 -62 -41 -14 -2 -15 8 17 1 22
0000b0 04 11 e7 08 ff fe 81 ff 10 01 e7 01 1a ee ff 9f
       4 17 -25 8 -1 -2 -127 -1 16 1 -25 1 26 -18 -1 -97
0000c0 e6 f2 01 3f 02 e5 f0 c4 3f fd 09 20 fa 2a b2 da
       -26 -14 1 63 2 -27 -16 -60 63 -3 9 32 -6 42 -78 -38
0000d0 d6 e2 fb b2 2e 01 d7 f8 f7 0d f7 81 ea fc 07 33
       -42 -30 -5 -78 46 1 -41 -8 -9 13 -9 -127 -22 -4 7 51
0000e0 ba 2e 0d fd 1a 20 0e 81 00 0a f3 ec ef ed 02 00
       -70 46 13 -3 26 32 14 -127 0 10 -13 -20 -17 -19 2 0
0000f0 8b 10 e2 03 df e3 ed 14 f0 03 15 37 ef f1 42 6e
       -117 16 -30 3 -33 -29 -19 20 -16 3 21 55 -17 -15 66 110
