models/safe_food_model.tflite (tflite, 13028 bytes, 3 tensors)

arith.constant f4 [1, 96]
00000000: c8c0 a6bd 790a 713d 8993 233d 982b 553d
00000010: 2031 af3d f571 5f3d 9326 4b3d 8253 94bd
00000020: d221 6d3d faf8 56bd 1b25 0c3d 1023 7fbd
00000030: 39cb 2a3d d2bd cd3c 5fdf d33c 8bc6 e5bd
00000040: f343 cb3c 1cd7 003d ae8d 563d 0a8f d23c
00000050: ce55 1a3d 8394 bc3d 6ef9 94bd 6ada 6abd
00000060: aa77 9d3d ccc9 a53c 5d81 783d 5564 953d
00000070: d7ee 483d e4de 5ebd 2903 753d 94f9 473d
00000080: d93a 283d 0431 67bd 5f08 3cbe 290b 1f3d
00000090: e2f8 8c3d aa86 d73c 39f7 463d 9381 243d
000000a0: 2c30 d73c 4b86 973d 6370 f3bd bbb4 c4bd
000000b0: 0033 443d 5752 fd3c 09fb 96bd 8772 9bbd
000000c0: 4d53 fd3c f22d babd c42d b3bd dd81 973d
000000d0: 6d57 b8bd c742 343d 76de 873d 8727 76bd
000000e0: df65 2b3d f49c f33c 6d22 dfbc 549b 4b3d
000000f0: 6b09 99bd ca92 323d a2ba 39bd 4b4f 8abd
00000100: e42c c8bd 27b3 cbbc 1096 2d3d c6c7 273d
00000110: bc8f 873d 961e e7bd 0817 76bd f405 42be
00000120: 3f58 733d 9c13 153d aafb 633c 30f6 71bd
00000130: e76c f63c bf29 e33c e3e5 173d 2167 843d
00000140: 3d39 38be 42dc 413d 4e5e 90bd 4956 f03c
00000150: 8bfd 283e eb87 873d 667a 90bd 89f8 b9bd
00000160: cc24 823d fd2c 253d bf14 903c 8a82 8ebd
00000170: 36a4 83bd 8e99 3ebd 6a0c 813c 5d67 423e
-0.08142239 0.058847878 0.039935622 0.052043527 0.08554292 0.054552037 0.049597334 -0.0724249
0.05789358 -0.052483536 0.034215074 -0.062289298 0.041697714 0.025114927 0.025863348 -0.1121951
0.024812674 0.031455144 0.05238121 0.025702972 0.037679486 0.09208014 -0.072741374 -0.057337202
0.0768884 0.020237826 0.060670245 0.072945274 0.0490559 -0.054411784 0.059817467 0.048822
0.041071746 -0.05644323 -0.18362568 0.038829003 0.06883408 0.02630933 0.048575614 0.040162634
0.026268087 0.07398661 -0.118866704 -0.09604784 0.0479002 0.030923052 -0.073721 -0.07590204
0.03092351 -0.090907946 -0.087489635 0.07397816 -0.0900105 0.044008996 0.06634228 -0.06009629
0.0418452 0.029737927 -0.027238095 0.04970868 -0.074724995 0.04359702 -0.045344003 -0.06753405
-0.09774187 -0.0248657 0.04237944 0.040962003 0.06619212 -0.11285131 -0.060080558 -0.18947583
0.05941033 0.036395654 0.013914982 -0.059072673 0.030081226 0.027729867 0.03708447 0.06464983
-0.17990585 0.047329195 -0.07049237 0.029338019 0.16502969 0.06617721 -0.07054596 -0.090806074
0.06354675 0.040326107 0.017588018 -0.06958492 -0.06427805 -0.04653316 0.01575299 0.18984742

sequential_1/dense_1/BiasAdd/ReadVariableOp f4 [96]
00000000: ddfd 8abd 0094 6c3b 2ce8 0a3c f4e0 10bd
00000010: 358d d23b 6f70 35bd 5187 f33c 8022 05be
00000020: 4a2f 80bd 9dab bebd f950 1fbd b63e 07be
00000030: 96f8 dabc 9321 423c 7214 bb3b 49db 9abd
00000040: f42e b83c 2577 02bd 997e 23bd dab0 89bd
00000050: dbdb c83d 7e4d 22bd fb24 b1bd e931 e2bd
00000060: 5e51 593d 4fea 0d3d 41a9 803a 355a 12bc
00000070: cd12 5ebd e9f2 52bd 27ff 1ebd 4284 1abc
00000080: 2ce0 3bbc 4d10 babc 8006 60bd 29ee 80bd
00000090: 775b cbbd d523 82bd 3317 0ebc bd25 413b
000000a0: 84ce 2ebb 3f96 8b3a 34be 68bd 6116 b6bd
000000b0: 7b88 8abc b7c6 94bd bef4 22be 755f d5bd
000000c0: 084c 6dbd f9ba ddbd 2528 86bd 5225 1dbd
000000d0: f02e 8dbd c08e 91bc b27e dc3b 0f67 60bd
000000e0: 1f56 92bb c48e 07bd 4632 6cbd 7b4b 8cbc
000000f0: ae11 55bd a156 39bc 0cf3 bfbd 29e8 afbd
00000100: 225a ebbd a96a 82bd ef35 a03b adf2 e23c
00000110: 1053 14bd f1fa 6ebd eaad bcbc 7c1b 12be
00000120: b151 85bd 8dae fab9 9f6d 8f3b 1c7d b8bd
00000130: cced 40bd 5385 aa3c a4f9 0ebd 9a1d f83d
00000140: fd32 87bd bfb4 4abd af71 f5bc c703 8f3c
00000150: ae1a 763c 9dcd ecbc 3c0f abbd c454 b4bd
00000160: 4f42 1fbd 7c3c 3cbd 27ca dd3b 4291 a6bd
00000170: 588f 77bd 8f11 8fbd aba7 983c e1ff 50bd
-0.06786702 0.0036098957 0.008478206 -0.035370782 0.0064255246 -0.04429668 0.02972761 -0.13001442
-0.0625902 -0.093100764 -0.03889558 -0.13207516 -0.026729863 0.011848825 0.0057092244 -0.075613566
0.022483326 -0.031851906 -0.039915655 -0.06723185 0.09807559 -0.039624684 -0.086496316 -0.11044676
0.053056113 0.034647282 0.0009816067 -0.00893264 -0.05421715 -0.05150119 -0.03881755 -0.009430947
-0.011467021 -0.022712851 -0.0546937 -0.062954254 -0.09929555 -0.06354491 -0.008672523 0.0029471957
-0.0026673386 0.0010649635 -0.056822017 -0.08890987 -0.016910782 -0.07264464 -0.15913674 -0.104185976
-0.057933837 -0.10826678 -0.06550626 -0.03836567 -0.06893718 -0.017768264 0.0067289704 -0.054785784
-0.004465833 -0.033095136 -0.057665132 -0.017125836 -0.052018814 -0.011312158 -0.093725294 -0.08589203
-0.11491801 -0.06368 0.004889242 0.027703607 -0.036212027 -0.058344785 -0.023032147 -0.14268297
-0.06509722 -0.00047813766 0.0043770815 -0.09008238 -0.04710178 0.020815527 -0.034906045 0.12115021
-0.06601522 -0.04948878 -0.029961435 0.017457856 0.015021009 -0.028906638 -0.08352515 -0.0880523
-0.038881596 -0.04595612 0.006768483 -0.081331745 -0.060439438 -0.06985771 0.018634638 -0.051025275

sequential_1/dense_1/MatMul f4 [96, 28]
00000000: 6181 bebe a3f8 d4bd c240 60bd aac2 853d
00000010: 1f79 9d3d 8e97 3a3e 98d4 943d a0dc 9b3d
00000020: 20a9 8e3c 673f 78bd 3077 0b3e 28f7 a4be
00000030: 7dfa f53c e118 983d 6a17 bcbd e1c9 c2bd
00000040: 32f6 573d 8b0d 13bd 17c1 52be b029 85be
00000050: e4fc 743c 1621 08bc 3ee6 e53c 5bae b5bb
00000060: 330b 94bd f7ec a1bc 7f5d 813c 7eab 883e
00000070: ee4c abbc 640f b8be 44b2 a83c e96b 463c
00000080: 7452 873d de57 30be 94fd 52bd 8fc7 c7be
00000090: d4ac 003d 29c8 17bd cf05 15be 5d54 29bd
000000a0: 5ad5 2e3e 2953 7a3e 0278 cb3d 9030 a9bc
000000b0: 539e 8b3c 8bb7 12be 0948 363d 4787 003e
000000c0: 61ad 0a3e 8be8 1b3c fd0b af3d 60ae fd3c
000000d0: 6766 7a3c 5ec9 76bb d501 6ebc bae8 1fbd
000000e0: 80a2 e7bd 5a0d 893d e96b 65be 1c62 323d
000000f0: 6716 d13c 348d 0bbd fecd 31be f8b4 e8bc
00000100: 8ace 8fbe 4162 423e 5a9c 3b3b 7fbb 983d
00000110: 2285 2d3c 63d1 bb3d d00f 97bd b0d0 1b3e
00000120: 2f86 31bc c781 d0bd ee53 6e3d eb78 0bbe
00000130: 7c9c a4bd f5ee 713e 8593 11bd 8e82 acbd
00000140: c1a3 d23d d05a 94bc 7dc7 e03c 319f 0abe
00000150: 2576 2d3d 8043 e93d 0376 093c e954 9fbc
00000160: 2661 bf3c 4db4 d53c 0ec2 273d bb73 293d
00000170: 88e6 1ebd 1f75 093c 11f8 f1bd 8311 883e
00000180: 30a8 f7bd 104c babe b7e2 47be 465e 28be
00000190: 8bbd 37be 16e0 373e de10 3abe a1a6 aebe
000001a0: be73 debc 5a91 873d 1e67 76bd d545 55bd
000001b0: 7124 403e d5ad a93d 9b19 ca3d 9f90 34be
000001c0: 7fbc d73d 2a6b 2abe c4f5 d9bd 9561 8d3d
000001d0: 22ff 4cbb a67e 07bd 978f 21be 1225 05be
000001e0: 6eec 3fbe df15 f1ba b6e5 19bd 23c3 16bd
000001f0: baf9 a0bd 2d6d 70bd 0bc0 74be 4d2e b23c
00000200: bc0f 763e 299f f23d f62c 623d 94b5 2a3e
00000210: 2de3 57be 00f6 10be dc4b 5c3c 184e 0b3e
00000220: 405c 89bd bdd3 49bd 4aa3 0bbe 8251 2fbe
00000230: bba8 1b3d 8e18 8a3e 4582 9fbc 01f5 a03c
00000240: 7a97 3e3e 6f03 11be 2966 9cbd b6d2 863e
00000250: 6942 a5bc 45e3 6d3d e333 53be bba2 6abd
00000260: 5659 973c f926 b03d 5d6d 47bd fb6a a9bd
00000270: c220 31be 4fd5 82be 5eb6 93bd d045 32be
00000280: fadc 083c 45f1 2abd 5031 203d aca5 36be
00000290: 0477 853d 10b5 d33d 527d a03b 643a afbd
000002a0: 1770 4e3d a3c3 d5bd c9f1 4ebe ef51 bb3d
000002b0: 33e6 45be 0009 023c df7b 243d 1978 51be
000002c0: c7d4 23be cb7b 29bd 1600 b83d 9a3d 8cbd
000002d0: d772 0fbd b762 87bd 0ae5 4b3e 7044 3fbd
000002e0: ae57 703d e5db 4c3e e5f8 243e b330 0d3e
000002f0: 4adb 003e 527e c8bd 4903 543c 832f bcbd
00000300: d118 253c 1046 85bd b480 6fbd e060 7ebd
00000310: 307b 03bd 9ce2 1e3e 47f4 78bd 33e3 06bb
00000320: 7a64 2d3e 0b61 07bd e55b 873d 2c7c a7bd
00000330: 190b 7b3b 2b0e 84bd 3ac9 623e 18e9 a53c
00000340: d22c 3dbe c897 cdbe fee5 25be a7ac 5bbe
00000350: f2d5 16bd d79b b6be 47c0 84be 2c1f eb3d
00000360: 2339 8fbb d080 9c3b d1ef 023e 154f 4a3c
00000370: fb29 a7bd 11ed 92bb b83c 823d f7fc 7b3e
00000380: 2d45 463d efa3 9c3e 2909 c5bd 0967 15bd
00000390: c4d4 893d da27 a9bd 324d 90bd 056e 6e3e
000003a0: 5423 a8bc b982 f5bc a27c 33be 3631 b03d
000003b0: c231 53bc 29a3 94be 419a 2ebd c8df a1bd
000003c0: a21a a9bd f3de e63c 0762 423c 7a1e bebe
000003d0: 6a8a 6abd 6bfb 24bd 6933 0839 788b f0bc
000003e0: d7da cd3d 4b14 6e3d bff8 12bd 1c65 d4bc
000003f0: 5a6f d8bd f2d1 463d fc5f 383e 6dca a5bc
-0.37208083 -0.10398986 -0.054749258 0.0653127 0.07689118 0.18221876 0.072671115 0.0761044
0.01741463 -0.06060734 0.13619685 -0.32219815 0.030026669 0.0742662 -0.091841534 -0.095111616
0.052725025 -0.035901587 -0.2058147 -0.26008368 0.014952872 -0.00830867 0.02806389 -0.0055444664
-0.072286986 -0.019766314 0.015791653 0.26693338 -0.020910706 -0.35949242 0.020592816 0.012110689
0.066075236 -0.17221019 -0.051511362 -0.3901944 0.03141482 -0.037056122 -0.14552997 -0.04134022
0.17073575 0.24445786 0.09934999 -0.02065304 0.017043268 -0.14327829 0.04450229 0.12551604
0.13542701 0.009515892 0.085472085 0.030966938 0.015283204 -0.0037656645 -0.014526804 -0.039040305
-0.11310291 0.06692 -0.22404446 0.043550596 0.025523378 -0.03407021 -0.17363736 -0.028406605
-0.28087264 0.18982793 0.0028627128 0.07457637 0.010590823 0.09170797 -0.07376063 0.15216327
-0.0108352145 -0.10181003 0.05818551 -0.13620345 -0.080376595 0.23626311 -0.035541076 -0.08423339
0.1028514 -0.018109709 0.027438873 -0.13537289 0.042349 0.11389828 0.008389953 -0.019449668
0.023361754 0.02608695 0.04095655 0.041370135 -0.03879407 0.00838974 -0.11814893 0.2657586
-0.12092626 -0.36386156 -0.19520079 -0.16442212 -0.17943399 0.17956576 -0.18170497 -0.34111503
-0.0271548 0.066195205 -0.060156934 -0.05206855 0.18763901 0.08285109 0.09868165 -0.17633294
0.10534 -0.16642442 -0.10642579 0.06903378 -0.003128 -0.033079766 -0.15777431 -0.13002422
-0.18742535 -0.0018393359 -0.037572585 -0.03680719 -0.078601316 -0.05869787 -0.23901384 0.021750594
0.2402944 0.11846764 0.05521866 0.16670829 -0.21082754 -0.14156342 0.013445821 0.13604009
-0.067070484 -0.049274195 -0.13636509 -0.17120937 0.03800271 0.2697186 -0.019471297 0.019648077
0.18612471 -0.14161466 -0.07636673 0.26332635 -0.020173268 0.05807807 -0.20625262 -0.057284098
0.018475216 0.086011834 -0.04868828 -0.08272358 -0.17297652 -0.25553367 -0.07212518 -0.17409444
0.008353466 -0.041734 0.039109528 -0.17836636 0.06516841 0.10337269 0.004897752 -0.08556059
0.050399866 -0.10437705 -0.20209421 0.09146487 -0.19326095 0.007936716 0.040157195 -0.2045597
-0.15999137 -0.041377824 0.089843914 -0.06847687 -0.03502163 -0.06610625 0.1991159 -0.046696126
0.058677368 0.20005758 0.1611057 0.13788109 0.12583652 -0.09789719 0.012940236 -0.0918875
0.0100767175 -0.06507504 -0.05847235 -0.062104106 -0.032099903 0.15516132 -0.060779836 -0.0020582199
0.1693286 -0.03305153 0.06609324 -0.08177981 0.0038306175 -0.06448015 0.22147074 0.02025275
-0.18474129 -0.40154862 -0.16201016 -0.2145258 -0.036825128 -0.3566577 -0.25927946 0.11480555
-0.004370825 0.004776098 0.12786795 0.012347956 -0.08162304 -0.004483827 0.063592374 0.24608217
0.048405815 0.3059382 -0.09620888 -0.036475215 0.06730035 -0.08259554 -0.07045974 0.23284157
-0.020524658 -0.02996956 -0.17528012 0.08603136 -0.012890281 -0.2903073 -0.042627577 -0.07904011
-0.08257033 0.028182482 0.011864192 -0.37132627 -0.05726091 -0.040278833 0.00012989122 -0.029363379
0.10051506 0.05812482 -0.035881754 -0.025927119 -0.105681136 0.048540063 0.18005365 -0.020238126
